…
Thu 26 Sep 2024 23:30:03 INFO    encoder.token_embedder_bert.transformer_model.pooler.dense.weight
Thu 26 Sep 2024 23:30:03 INFO    tag_detect_projection_layer._module.bias
Thu 26 Sep 2024 23:30:03 INFO    tag_detect_projection_layer._module.weight
Thu 26 Sep 2024 23:30:03 INFO    tag_labels_projection_layer._module.bias
Thu 26 Sep 2024 23:30:03 INFO    tag_labels_projection_layer._module.weight
Thu 26 Sep 2024 23:30:04 INFO GECToR(
  (encoder): BasicTextFieldEmbedder(
    (token_embedder_bert): PretrainedTransformerEmbedder(
      (transformer_model): BertModel(
        (embeddings): BertEmbeddings(
          (word_embeddings): Embedding(21128, 1024, padding_idx=0)
          (position_embeddings): Embedding(512, 1024)
          (token_type_embeddings): Embedding(2, 1024)
          (LayerNorm): LayerNorm((1024,), eps=1e-12, elementwise_affine=True)
          (dropout): Dropout(p=0.1, inplace=False)
        )
        (encoder): BertEncoder(
          (layer): ModuleList(
            (0-23): 24 x BertLayer(
              (attention): BertAttention(
                (self): BertSelfAttention(
                  (query): Linear(in_features=1024, out_features=1024, bias=True)
                  (key): Linear(in_features=1024, out_features=1024, bias=True)
                  (value): Linear(in_features=1024, out_features=1024, bias=True)
                  (dropout): Dropout(p=0.1, inplace=False)
                )
                (output): BertSelfOutput(
                  (dense): Linear(in_features=1024, out_features=1024, bias=True)
                  (LayerNorm): LayerNorm((1024,), eps=1e-12, elementwise_affine=True)
                  (dropout): Dropout(p=0.1, inplace=False)
                )
              )
              (intermediate): BertIntermediate(
                (dense): Linear(in_features=1024, out_features=4096, bias=True)
                (intermediate_act_fn): GELUActivation()
              )
              (output): BertOutput(
                (dense): Linear(in_features=4096, out_features=1024, bias=True)
                (LayerNorm): LayerNorm((1024,), eps=1e-12, elementwise_affine=True)
                (dropout): Dropout(p=0.1, inplace=False)
              )
            )
          )
        )
        (pooler): BertPooler(
          (dense): Linear(in_features=1024, out_features=1024, bias=True)
          (activation): Tanh()
        )
      )
    )
  )
  (predictor_dropout): TimeDistributed(
    (_module): Dropout(p=0.0, inplace=False)
  )
  (tag_labels_projection_layer): TimeDistributed(
    (_module): Linear(in_features=1024, out_features=7375, bias=True)
  )
  (tag_detect_projection_layer): TimeDistributed(
    (_module): Linear(in_features=1024, out_features=4, bias=True)
  )
)
Thu 26 Sep 2024 23:30:04 INFO start training...
Thu 26 Sep 2024 23:30:05 INFO epoch [  1] train time 0h 0m 0s |  loss |[10.555]
Thu 26 Sep 2024 23:30:06 INFO ---------- valid total [2] | valid precision [1.000] | valid recall [0.000] | valid f0.5 [0.000] | valid time 0h 0m 1s
Thu 26 Sep 2024 23:30:07 INFO ---------- test total [2] | test precision [0.500] | test recall [0.000] | test f0.5 [0.000] | test time 0h 0m 1s
…
