…
Thu 03 Oct 2024 11:35:46 INFO    encoder.token_embedder_bert.transformer_model.pooler.dense.weight
Thu 03 Oct 2024 11:35:46 INFO    tag_detect_projection_layer._module.bias
Thu 03 Oct 2024 11:35:46 INFO    tag_detect_projection_layer._module.weight
Thu 03 Oct 2024 11:35:46 INFO    tag_labels_projection_layer._module.bias
Thu 03 Oct 2024 11:35:46 INFO    tag_labels_projection_layer._module.weight
Thu 03 Oct 2024 11:35:47 INFO GECToR(
  (encoder): BasicTextFieldEmbedder(
    (token_embedder_bert): PretrainedTransformerEmbedder(
      (transformer_model): BertModel(
        (embeddings): BertEmbeddings(
          (word_embeddings): Embedding(21128, 1024, padding_idx=0)
          (position_embeddings): Embedding(512, 1024)
          (token_type_embeddings): Embedding(2, 1024)
          (LayerNorm): LayerNorm((1024,), eps=1e-12, elementwise_affine=True)
          (dropout): Dropout(p=0.1, inplace=False)
        )
        (encoder): BertEncoder(
          (layer): ModuleList(
            (0-23): 24 x BertLayer(
              (attention): BertAttention(
                (self): BertSelfAttention(
                  (query): Linear(in_features=1024, out_features=1024, bias=True)
                  (key): Linear(in_features=1024, out_features=1024, bias=True)
                  (value): Linear(in_features=1024, out_features=1024, bias=True)
                  (dropout): Dropout(p=0.1, inplace=False)
                )
                (output): BertSelfOutput(
                  (dense): Linear(in_features=1024, out_features=1024, bias=True)
                  (LayerNorm): LayerNorm((1024,), eps=1e-12, elementwise_affine=True)
                  (dropout): Dropout(p=0.1, inplace=False)
                )
              )
              (intermediate): BertIntermediate(
                (dense): Linear(in_features=1024, out_features=4096, bias=True)
                (intermediate_act_fn): GELUActivation()
              )
              (output): BertOutput(
                (dense): Linear(in_features=4096, out_features=1024, bias=True)
                (LayerNorm): LayerNorm((1024,), eps=1e-12, elementwise_affine=True)
                (dropout): Dropout(p=0.1, inplace=False)
              )
            )
          )
        )
        (pooler): BertPooler(
          (dense): Linear(in_features=1024, out_features=1024, bias=True)
          (activation): Tanh()
        )
      )
    )
  )
  (predictor_dropout): TimeDistributed(
    (_module): Dropout(p=0.0, inplace=False)
  )
  (tag_labels_projection_layer): TimeDistributed(
    (_module): Linear(in_features=1024, out_features=7375, bias=True)
  )
  (tag_detect_projection_layer): TimeDistributed(
    (_module): Linear(in_features=1024, out_features=4, bias=True)
  )
)
Thu 03 Oct 2024 11:35:47 INFO start training...
Thu 03 Oct 2024 11:37:29 INFO random_seed=2024
use_gpu=True
learning_rate=6e-06
train_batch_size=32
test_batch_size=1
epoch_nums=200
test_step=20
display_train_step=1
gpu_id=5
training_resume=False
load_best_config=False
supervising_mode=fully_supervised
validset_divide=True
test_only=False
shuffle=True
…
