…
Sun 08 Sep 2024 09:03:09 INFO loaded 981 examples from: ./gectoolkit/properties/model/SynGEC/preprocess/preprocess_data/chinese_handwritten_with_syntax_bart/bin/train.dpd.src-tgt.src
Sun 08 Sep 2024 09:03:09 INFO loaded 981 examples from: ./gectoolkit/properties/model/SynGEC/preprocess/preprocess_data/chinese_handwritten_with_syntax_bart/bin/train.probs.src-tgt.src
Sun 08 Sep 2024 09:03:09 INFO success! syntax types: 1, source conll lines: 981
Sun 08 Sep 2024 09:03:10 INFO SynGEC(
  (model): SyntaxEnhancedBARTModel(
    (encoder): SyntaxEnhancedTransformerEncoder(
      (sentence_encoder): SyntaxEnhancedSentenceTransformerEncoder(
        (dropout_module): FairseqDropout()
        (embed_tokens): Embedding(21132, 1024, padding_idx=1)
        (embed_positions): LearnedPositionalEmbedding(514, 1024, padding_idx=1)
        (layernorm_embedding): LayerNorm((1024,), eps=1e-05, elementwise_affine=True)
        (layers): ModuleList(
          (0-11): 12 x DSATransformerEncoderLayer(
            (self_attn): DSAMultiheadAttention(
              (dropout_module): FairseqDropout()
              (k_proj): Linear(in_features=1024, out_features=1024, bias=True)
              (v_proj): Linear(in_features=1024, out_features=1024, bias=True)
              (q_proj): Linear(in_features=1024, out_features=1024, bias=True)
              (out_proj): Linear(in_features=1024, out_features=1024, bias=True)
            )
            (self_attn_layer_norm): LayerNorm((1024,), eps=1e-05, elementwise_affine=True)
            (dropout_module): FairseqDropout()
            (activation_dropout_module): FairseqDropout()
            (fc1): Linear(in_features=1024, out_features=4096, bias=True)
            (fc2): Linear(in_features=4096, out_features=1024, bias=True)
            (final_layer_norm): LayerNorm((1024,), eps=1e-05, elementwise_affine=True)
          )
        )
      )
      (syntax_encoder): SyntaxEnhancedSyntaxGuidedTransformerEncoder(
        (dropout_module): FairseqDropout()
        (embed_tokens): Embedding(51, 1024, padding_idx=0)
        (layers): ModuleList(
          (0-2): 3 x GCNSyntaxGuidedTransformerEncoderLayer(
            (gcn_layer_norm): LayerNorm((1024,), eps=1e-05, elementwise_affine=True)
            (dropout_module): FairseqDropout()
            (activation_dropout_module): FairseqDropout()
            (W_out): Linear(in_features=2048, out_features=1024, bias=True)
            (W_in): Linear(in_features=2048, out_features=1024, bias=True)
            (fc): Linear(in_features=1024, out_features=1024, bias=True)
            (fc1): Linear(in_features=1024, out_features=4096, bias=True)
            (fc2): Linear(in_features=4096, out_features=1024, bias=True)
            (final_layer_norm): LayerNorm((1024,), eps=1e-05, elementwise_affine=True)
          )
        )
      )
    )
    (decoder): SyntaxEnhancedTransformerDecoder(
      (dropout_module): FairseqDropout()
      (embed_tokens): Embedding(21132, 1024, padding_idx=1)
      (embed_positions): LearnedPositionalEmbedding(514, 1024, padding_idx=1)
      (layernorm_embedding): LayerNorm((1024,), eps=1e-05, elementwise_affine=True)
      (layers): ModuleList(
        (0-11): 12 x TransformerDecoderLayer(
          (dropout_module): FairseqDropout()
          (self_attn): MultiheadAttention(
            (dropout_module): FairseqDropout()
            (k_proj): Linear(in_features=1024, out_features=1024, bias=True)
            (v_proj): Linear(in_features=1024, out_features=1024, bias=True)
            (q_proj): Linear(in_features=1024, out_features=1024, bias=True)
            (out_proj): Linear(in_features=1024, out_features=1024, bias=True)
          )
          (activation_dropout_module): FairseqDropout()
          (self_attn_layer_norm): LayerNorm((1024,), eps=1e-05, elementwise_affine=True)
          (encoder_attn): MultiheadAttention(
            (dropout_module): FairseqDropout()
            (k_proj): Linear(in_features=1024, out_features=1024, bias=True)
            (v_proj): Linear(in_features=1024, out_features=1024, bias=True)
            (q_proj): Linear(in_features=1024, out_features=1024, bias=True)
            (out_proj): Linear(in_features=1024, out_features=1024, bias=True)
          )
          (encoder_attn_layer_norm): LayerNorm((1024,), eps=1e-05, elementwise_affine=True)
          (fc1): Linear(in_features=1024, out_features=4096, bias=True)
          (fc2): Linear(in_features=4096, out_features=1024, bias=True)
          (final_layer_norm): LayerNorm((1024,), eps=1e-05, elementwise_affine=True)
        )
      )
      (output_projection): Linear(in_features=1024, out_features=21132, bias=False)
    )
    (classification_heads): ModuleDict()
  )
  (criterion): LabelSmoothedCrossEntropyCriterion()
)
Sun 08 Sep 2024 09:03:10 INFO start training...
Sun 08 Sep 2024 09:03:16 INFO epoch [  1] train time 0h 0m 6s |  loss |[8560.020]
Sun 08 Sep 2024 09:04:45 INFO random_seed=2023
use_gpu=True
learning_rate=6e-05
train_batch_size=32
test_batch_size=1
…
