…
checkpoint_file=checkpoint/Transformer-nlpcc18.pth
log_file=log/Transformer-nlpcc18.log
output_dir=result/Transformer-nlpcc18
checkpoint_dir=checkpoint/Transformer-nlpcc18
min_word_keep=5
min_generate_keep=5
language=zh
pretrained_model_path=./gectoolkit/properties/model/Transformer
approx=none
backend=nccl
loss_type=FC_FT_CRF
dropout=0.2
embed_dim=512
hidden_dim=128
ff_embed_dim=2048
max_output_len=100
max_input_len=100
layers=6
gamma=2
num_heads=8
device=cuda
model=Transformer
dataset=nlpcc18
augment=none
map_location=cuda
gpu_nums=1


Thu 10 Oct 2024 21:46:27 INFO Transformer(
  (in_tok_embed): Embedding(21135, 512, padding_idx=0)
  (positional_embed): LearnedPositionalEmbedding(
    (weights): Embedding(1024, 512)
  )
  (self_attention_mask): SelfAttentionMask()
  (encoder_stack): ModuleList(
    (0-5): 6 x TransformerLayer(
      (self_attn): MultiheadAttention(
        (out_proj): Linear(in_features=512, out_features=512, bias=True)
      )
      (fc1): Linear(in_features=512, out_features=2048, bias=True)
      (fc2): Linear(in_features=2048, out_features=512, bias=True)
      (attn_layer_norm): LayerNorm()
      (ff_layer_norm): LayerNorm()
    )
  )
  (decoder_stack): ModuleList(
    (0-5): 6 x TransformerLayer(
      (self_attn): MultiheadAttention(
        (out_proj): Linear(in_features=512, out_features=512, bias=True)
      )
      (fc1): Linear(in_features=512, out_features=2048, bias=True)
      (fc2): Linear(in_features=2048, out_features=512, bias=True)
      (attn_layer_norm): LayerNorm()
      (ff_layer_norm): LayerNorm()
      (external_attn): MultiheadAttention(
        (out_proj): Linear(in_features=512, out_features=512, bias=True)
      )
      (external_layer_norm): LayerNorm()
    )
  )
  (out_tok_embed): Linear(in_features=512, out_features=21135, bias=True)
)
Thu 10 Oct 2024 21:46:27 INFO start training...
Thu 10 Oct 2024 21:48:26 INFO random_seed=2024
use_gpu=True
learning_rate=6e-06
train_batch_size=32
test_batch_size=1
epoch_nums=100
test_step=5
display_train_step=1
gpu_id=5
training_resume=False
load_best_config=False
supervising_mode=fully_supervised
validset_divide=True
test_only=False
shuffle=True
…
