…
checkpoint_file=checkpoint/Transformer-handwritten.pth
log_file=log/Transformer-handwritten.log
output_dir=result/Transformer-handwritten
checkpoint_dir=checkpoint/Transformer-handwritten
min_word_keep=5
min_generate_keep=5
language=zh
pretrained_model_path=./gectoolkit/properties/model/Transformer
approx=none
backend=nccl
loss_type=FC_FT_CRF
dropout=0.2
embed_dim=512
hidden_dim=128
ff_embed_dim=2048
max_output_len=100
max_input_len=100
layers=6
gamma=2
num_heads=8
device=cuda
model=Transformer
dataset=handwritten
augment=none
map_location=cuda
gpu_nums=8


Thu 05 Sep 2024 04:32:50 INFO Transformer(
  (in_tok_embed): Embedding(21135, 512, padding_idx=0)
  (positional_embed): LearnedPositionalEmbedding(
    (weights): Embedding(1024, 512)
  )
  (self_attention_mask): SelfAttentionMask()
  (encoder_stack): ModuleList(
    (0-5): 6 x TransformerLayer(
      (self_attn): MultiheadAttention(
        (out_proj): Linear(in_features=512, out_features=512, bias=True)
      )
      (fc1): Linear(in_features=512, out_features=2048, bias=True)
      (fc2): Linear(in_features=2048, out_features=512, bias=True)
      (attn_layer_norm): LayerNorm()
      (ff_layer_norm): LayerNorm()
    )
  )
  (decoder_stack): ModuleList(
    (0-5): 6 x TransformerLayer(
      (self_attn): MultiheadAttention(
        (out_proj): Linear(in_features=512, out_features=512, bias=True)
      )
      (fc1): Linear(in_features=512, out_features=2048, bias=True)
      (fc2): Linear(in_features=2048, out_features=512, bias=True)
      (attn_layer_norm): LayerNorm()
      (ff_layer_norm): LayerNorm()
      (external_attn): MultiheadAttention(
        (out_proj): Linear(in_features=512, out_features=512, bias=True)
      )
      (external_layer_norm): LayerNorm()
    )
  )
  (out_tok_embed): Linear(in_features=512, out_features=21135, bias=True)
)
Thu 05 Sep 2024 04:32:50 INFO start training...
Thu 05 Sep 2024 04:33:00 INFO epoch [  1] train time 0h 0m 10s |  loss |[8.594]
Thu 05 Sep 2024 04:36:12 INFO ---------- valid total [123] | valid precision [0.016] | valid recall [0.016] | valid f0.5 [0.016] | valid time 0h 3m 11s
Thu 05 Sep 2024 04:39:14 INFO ---------- test total [123] | test precision [0.008] | test recall [0.000] | test f0.5 [0.000] | test time 0h 3m 2s
…
